FinalProject/transfer/real/best_model.pth (torch, 699682 bytes, 11 tensors)

rdf_branch.0.weight f4 [128, 1000]
00000000: 00f1 053b 88ce f63b 009c 2838 ba89 c33c
00000010: b130 f8bc e466 d1bc 8162 00bd 6416 b33c
00000020: d0ae c13b 8a8b 06bc c087 693c e0d7 bd3c
00000030: 2006 2cba 745e 4abc 6836 3b3c 38cb a4bc
00000040: fe45 863c 8f03 d4bc 880b 2bbc 57c8 87bc
00000050: 440e 293c 98a9 f53c 08c4 c13b 6e55 b7bc
00000060: 844f 793c 2ce3 ccbc f09f a13c 68b6 e63c
00000070: a430 693c 9c13 f23c 902e 743b f66d 91bc
00000080: 369d d13c b089 533c 94a7 dcbb 5b17 eabc
00000090: f3b8 cabc e8d3 9c3c 8203 35bc 6c9e bd3c
000000a0: e00f 713b c4eb 1abc 5c78 303c b7ed a7bc
000000b0: 8532 e2bc bf21 a9bc b43b 91bc 9698 9cbc
000000c0: 9ef4 00bd 3036 bbbc d003 233b 82f3 16bc
000000d0: dc93 2c3c 0746 c7bc 4c30 4c3c fe57 ca3c
000000e0: def9 4dbc 54fc c23c 1460 353c d62b 013d
000000f0: cb14 87bc 9dc3 dbbc e0c3 9fbc 2a6f b93c
00000100: 241e 5b3c c4fb 133c 6c81 b1bc 0473 d9bc
00000110: 02f2 44bc 42c5 883c bad2 cfbc f0ee 60bc
00000120: fe96 bebc 4e1d ebbc 5471 57bc c471 843c
00000130: c019 753c bbf7 fabc dc1a 583c a005 3dbc
00000140: 99dd f7bc 1051 013d 580c 823c 34cb 223c
00000150: 7b7b bebc 3e9b b4bc ba1a 56bc 003e 333a
00000160: 50a2 dbba b4c7 d53c 66a3 36bc d2ed 53bc
00000170: 426e 8d3c 4861 50bb 08c2 f03c ba50 e23c
00000180: b888 33bb a0f7 ff3c 38d4 b4bc 7060 8fba
00000190: 1a0b a03c d70a ccbc 8015 bab9 7713 f4bc
000001a0: fb61 c3bc 54b6 ddbb 8055 503b ece1 8c3c
000001b0: d6af 9cbc c770 d1bc 56e5 3bbc 485e e73b
000001c0: 0ca1 353c 482d 9cbc c43e 253c b01a eb3b
000001d0: e04e a8bc 60b6 433c 60c2 c73a d8e3 103c
000001e0: 6cb1 91bb f91f acbc 5805 babb ae2a d93c
000001f0: 20bf adbc 30f7 d3bc 0c54 a13c b061 73bc
00000200: 00a7 063c 2a7c 85bc 604e 1c3c 54f5 153c
00000210: 4cd4 0a3c 08e5 823c 00f3 38b9 9070 4b3b
00000220: 786f 6fbc 2878 60bb 2cec adbc 148f 7a3c
00000230: 7a70 88bc 24c5 883c f40a fcbc 00b2 8038
00000240: 6834 b63c 6086 833a c412 a9bc 3c32 283c
00000250: b075 8f3c e0c3 a13c 52f7 afbc 8dd7 9abc
00000260: 9864 c73c e8a4 7f3c 94dc fb3c ca4e 8c3c
00000270: 40c0 e2b9 cc4b b63c 9867 903b 5fad bdbc
00000280: a85f 69bb f8f7 2c3c 147e 103c ce74 833c
00000290: e8be 27bb 36a2 ca3c 9082 3b3c c05b 923a
000002a0: 9a87 f5bc 6a6c 9d3c bc52 e2bc 1aec c3bc
000002b0: a028 67ba ffeb 81bc e69e c13c 683c c43c
000002c0: 60ff ba3b 9ca2 583c c4c9 58bc f8c6 19bc
000002d0: f85d 4e3c 46d6 a03c c8cb 53bb e313 9ebc
000002e0: bafc b4bc 5e1b bcbc 68a4 aebc 1813 88bc
000002f0: e0db b2bc 6406 9bbb 80ad ec3c 0091 133a
00000300: dbe8 f8bc 2cd5 de3c 40e4 fc3b 4839 64bb
00000310: 7ee5 c13c b0fe 9dba 2cd2 24bc 84c7 aebc
00000320: 1051 da3b 14b4 e2bb 0ba8 f7bc 088b dcbc
00000330: 6050 2c3c 4016 183a 1cf7 fd3c 4aa2 d53c
00000340: 3c79 8cbb d0b4 29bb 5531 debc 4c69 e4bb
00000350: 4872 a03c f45f 073c 6c28 a9bb 4a20 e7bc
00000360: 1e78 d2bc 6871 d7bc 58dc 863b bc15 9f3c
00000370: ec00 d7bb 4ed2 cebc cff4 e6bc 78d0 013c
00000380: 1621 a8bc 4df4 f4bc 50c1 913c 76aa d73c
00000390: 5825 c2bc c44c afbb f0d5 fb3c f7c5 fbbc
000003a0: 00f3 f73c 300f 5d3c 408e 83bc 4a8f c73c
000003b0: 2e2b 3cbc 70f9 4b3b 9cc0 eabc ea1e f83c
000003c0: 2280 013d 2309 fdbc 1ce6 673c 9d21 ddbc
000003d0: 90fd 943c ad47 c2bc 54f6 f2bc 4926 98bc
000003e0: 98db c73c c0c4 1e3b 6288 c83c 11bc 9bbc
000003f0: 6003 433b 2cc1 0c3c fca2 6abc 94e7 c9bc
0.0020437837 0.0075319447 4.0199608e-05 0.023869384 -0.030296655 -0.025561757 -0.03134394 0.021861263
0.005910732 -0.00821198 0.014253557 0.023174226 -0.0006562192 -0.012351621 0.011426546 -0.020116434
0.016390797 -0.025880603 -0.010439761 -0.016575022 0.010318343 0.029988095 0.0059132613 -0.022379603
0.015216712 -0.025010668 0.019729584 0.02816315 0.014232788 0.029550366 0.0037259199 -0.017752629
0.02558766 0.012911245 -0.006733844 -0.02857559 -0.024746394 0.019144014 -0.0110482 0.02314683
0.0036783144 -0.009455625 0.010770883 -0.020499093 -0.02761198 -0.020645974 -0.017728664 -0.019115727
-0.031483285 -0.022852987 0.0024874099 -0.00921333 0.010533299 -0.024325384 0.012462687 0.024700161
-0.01257178 0.02380196 0.01107027 0.031535946 -0.016489407 -0.026826674 -0.01950258 0.022636015
0.013373885 0.009032194 -0.021668158 -0.026544102 -0.01202059 0.016695622 -0.025369037 -0.013728842
-0.023265358 -0.028700497 -0.013149578 0.016167529 0.014959753 -0.030635705 0.0131899975 -0.011536986
-0.030257033 0.031571448 0.015875027 0.009936143 -0.02325224 -0.022046681 -0.013067896 0.0006837547
-0.0016756747 0.026096202 -0.011147356 -0.012935119 0.01726449 -0.0031796265 0.029389396 0.027626384
-0.0027394723 0.031246006 -0.02207385 -0.0010938775 0.019536544 -0.024907513 -0.00035492703 -0.029794438
-0.023850432 -0.00676612 0.0031789243 0.017197572 -0.019126814 -0.025566472 -0.011468252 0.0070607997
0.01108576 -0.01906456 0.010085765 0.0071748123 -0.020545423 0.011945337 0.0015240423 0.008843385
-0.004446199 -0.02101134 -0.0056769066 0.02650961 -0.0212093 -0.025874704 0.019693397 -0.0148548335
0.008218527 -0.016294558 0.00954017 0.009152729 0.008473467 0.015978351 -0.00017638132 0.0031042434
-0.014613979 -0.0034251306 -0.02123078 0.015292902 -0.016655196 0.016695566 -0.030766942 6.136671e-05
0.022241786 0.0010034554 -0.020638831 0.010265883 0.017512172 0.01974672 -0.021480236 -0.01890161
0.024339959 0.015603282 0.030744828 0.017127413 -0.00043249317 0.02225294 0.0044068806 -0.023153959
-0.0035609994 0.010557167 0.008819122 0.016046908 -0.0025595967 0.024735551 0.011444703 0.001116626
-0.029971886 0.019216735 -0.027627341 -0.023916293 -0.0008818004 -0.015859602 0.023635339 0.023954585
0.0057067126 0.013222363 -0.013231698 -0.009385817 0.012595646 0.019633424 -0.0032317508 -0.019296592
-0.022093166 -0.022962268 -0.02131863 -0.016610667 -0.02183336 -0.0047309864 0.028891325 0.00056292117
-0.030384472 0.027201258 0.007717639 -0.0034824181 0.023669 -0.0012054052 -0.0100598745 -0.02133537
0.0066624954 -0.0069184396 -0.030231496 -0.026921764 0.01051721 0.00058016554 0.03100162 0.026078362
-0.004286913 -0.0025895126 -0.027123133 -0.00697056 0.019585744 0.008262623 -0.0051622894 -0.028213639
-0.025692042 -0.026299194 0.0041156225 0.019419543 -0.006561389 -0.025246765 -0.028192906 0.007923238
-0.02052359 -0.029901648 0.017792374 0.0263264 -0.023699448 -0.0053497273 0.030741662 -0.030734045
0.030267239 0.0134923905 -0.016059041 0.024360318 -0.011484904 0.0031124018 -0.028656296 0.030288178
0.031616338 -0.030888146 0.014153983 -0.026993567 0.018187314 -0.023715818 -0.029658474 -0.018572943
0.024396703 0.002422616 0.024479095 -0.019010575 0.002975665 0.008590978 -0.014321085 -0.024646558

rdf_branch.0.bias f4 [128]
00000000: 6e1a d53c 5417 e8bc d24b a73c b583 46bc
00000010: 2400 d9bc 6957 dc3c d89a 0cbc 6e93 fcbc
00000020: e131 8f3c 1468 04bd 37ce ddbb 765a 1c3c
00000030: b1e1 2fbc e56d 37bc 2290 953b a670 c4bb
00000040: 4a0e 9d3c 5167 b6bb 765d b6bc 1d50 67bc
00000050: b5a3 39bd ded9 ad3c 5b88 bf3c 263c 9dbb
00000060: 919d e7bb de76 b63c ec32 143c 42d7 9bbb
00000070: 508e d03c c01b 8ebc 04f7 db3c 91d5 deba
00000080: 00fe 8a3c d7f3 2f3c faed bebb 6899 c23c
00000090: 18f3 043c ff8e e83b 59e7 61bb 9a5e 9bbb
000000a0: b466 6b3c c79d d03c 90e1 d43b 6f66 0abd
000000b0: a0d9 02bd 88c7 cf3c 054c 1b3d 216a 02bd
000000c0: b4b8 1dbd 83c6 b3bb b5d4 90ba 383b 8cba
000000d0: 14a2 9ebc 8d25 06bc 50e7 663c 3a79 f3ba
000000e0: 4a3c 16bd 08a8 bd3c 346f 553c 5cc2 bebb
000000f0: a355 8f3b 5f6f 08bd 9ea5 923c 9700 353a
00000100: 7f91 d8bb ec4e cdbc d670 f6bc 15b8 933a
00000110: ae17 cbbc b2fe ebbc ecb6 b6bc c513 22bc
00000120: a66a d4bc 46de aa3b 422d 9fbb cfff 9ebb
00000130: 8aee 753c 4eaa 243c dc32 df3b 9919 ab3c
00000140: 4963 8cb9 81a4 15bd cbf5 073b e3c2 9239
00000150: 0bf4 c5bb 9d99 e9bc 816e 16bd 3be5 18bd
00000160: 8362 ab3c 9d75 513c ddef 0abd 6761 913c
00000170: 70d2 a0bc 1e0d 01bb 71b6 68bc c3dd 2ebc
00000180: 0e91 a23b 8bd6 27bd 3ce5 c9bc 957a 8bbc
00000190: d08d 083d a58f c6bc 669d 033b 3767 05bc
000001a0: d918 4f3c ea8a 0fbd 5f35 e7bc 2be4 ac3c
000001b0: 5dab 733c aa83 9ebc 4453 e5bc fc4b e7bc
000001c0: aabe 67bc 72fc 88bc ee15 0bbc 1e3a e0bc
000001d0: 5fe7 4dbb 90c2 d7bc 0733 0c3c c3e2 1bbd
000001e0: 4ce6 9a3c d86c c43c 34d4 b8bc cd95 0abb
000001f0: f34d 9dbc e05c 4b3b efd5 8c3c e353 40bd
0.02601358 -0.028331436 0.020421896 -0.012116362 -0.026489325 0.02689715 -0.0085818395 -0.030832019
0.017479839 -0.03232582 -0.0067689675 0.009543052 -0.010734961 -0.0111956345 0.004564301 -0.005994874
0.019171853 -0.0055665155 -0.022261363 -0.014118222 -0.04532214 0.021222051 0.023380449 -0.00479843
-0.007068344 0.022273477 0.009045344 -0.0047558853 0.025458485 -0.017347217 0.026851185 -0.0017000904
0.01696682 0.010739288 -0.005826709 0.02375479 0.008114599 0.0070971246 -0.003447017 -0.004741502
0.014367748 0.02546586 0.0064966157 -0.033789095 -0.031945825 0.025363699 0.037914295 -0.031839494
-0.038506225 -0.005486311 -0.001104972 -0.0010698801 -0.019364394 -0.008187664 0.014093235 -0.0018575557
-0.03667859 0.023151413 0.013027001 -0.0058215093 0.0043742224 -0.033309337 0.017901238 0.000690469
-0.0066091414 -0.025062047 -0.030083101 0.0011270071 -0.024791565 -0.028807972 -0.02230402 -0.009892409
-0.02592976 0.0052144853 -0.00485769 -0.004852272 0.015010485 0.010050369 0.006811483 0.02088623
-0.00026776854 -0.036533836 0.002074587 0.00027992492 -0.006041055 -0.028515631 -0.03672648 -0.037327986
0.020920997 0.012784389 -0.033920158 0.01774664 -0.019631594 -0.0019691656 -0.014203654 -0.010672989
0.0049611395 -0.04097609 -0.02464544 -0.017026225 0.033338368 -0.024238417 0.002008283 -0.008142284
0.0126402015 -0.03504459 -0.028223692 0.021104893 0.014872399 -0.019349892 -0.027993806 -0.028234474
-0.014144579 -0.016721938 -0.008489115 -0.027371462 -0.0031418425 -0.026337892 0.008557088 -0.038058054
0.018908642 0.023977682 -0.022562124 -0.0021146417 -0.019202208 0.00310307 0.017191855 -0.046955

rdf_branch.2.weight f4 [128, 128]
00000000: 600d 5c3b d010 9bbc 6e62 2a3d 9f36 03bd
00000010: 1ed7 a3bd b8da cc3c 570b 863d 3982 8bbd
00000020: 861c e7bc 8e9d 243d 786c 51bd 9c82 7fba
00000030: f341 e93c 34a7 c33c a770 803d 3ce0 143d
00000040: 8094 89bd f28a a2bd b801 1f3c 259a 993d
00000050: 0ea4 883d 8f74 79bc 2179 62bd c558 febc
00000060: 8012 533c 08e9 dbbc 58f2 04bc c073 48bc
00000070: 60a5 8e3c c879 793c a0eb 173c f63c 6fbd
00000080: c972 823d 5e8c 543c f610 3c3d 2ae6 183d
00000090: 7bf8 42bd 339a 83bd d1f1 8c3d cc38 bb3c
000000a0: 1c92 d63c 5e75 733d a49c a0bc c076 a0bb
000000b0: 393f 223d d0fd fb3c 505e 0b3c 1656 babc
000000c0: 936a dc39 bf17 65bd dca5 123d a64c 4c3c
000000d0: bb93 96bd 4182 983d 2850 053d 8003 82bb
000000e0: a65d 86bd 6e5e 9abd c868 69bc e6b4 5f3d
000000f0: eec9 623d 9c38 7dbd 0144 ab3d 6c7b e83b
00000100: f39b b3bd 94d0 cc3c ec12 05bd 6ad8 7dbd
00000110: a791 35bd 6563 6fbd 20dd babc 6ca8 b13c
00000120: fe12 393d df65 9ebc 0ec5 e0bd 541f aabc
00000130: 8324 abbd 2b3a dfbc e9da 3abc 51fa a4bd
00000140: 117f 69bd bb4d 183d 0f51 85bc 0dd1 94bd
00000150: c5b3 56bd 0220 22bd 1b71 a63d 3f46 63bd
00000160: 366d c0bd e6f0 85bd 60be debc 349b 113d
00000170: 5f42 8d3d 629d f0bb 036c 92bd 084d 103c
00000180: b8fc 3d3c bcb2 993c 2ee0 e3bc 2de5 40bd
00000190: 039f 20bc b78d 5ebd e660 4b3d ce92 b0bd
000001a0: 7774 84bd 16ab 133d a422 843d 0dc7 ff3b
000001b0: 2d6d 923d 09de acbd aa07 91bd 6a4b 7a3d
000001c0: c5b7 833d 10d8 1e3c d6f2 3f3d 5275 6e3d
000001d0: d4c9 9f3b 7804 1e3c 6d4a 1fbd 831a 873b
000001e0: a505 ad3d fa08 23bd a802 e63c 42d9 8e3d
000001f0: b397 463d 88a9 2dbc 79a6 89bd 3fb7 dabd
00000200: 8084 733d e0cd 5cbc 5b1d da3c a85a 3c3c
00000210: 2724 b23c e204 a1bd 9eed 35bd 107d 813d
00000220: 0720 cbbc e39f 33bd f80e 273d d99c 303d
00000230: 3fe7 ca3c 303c 01bb ab2b ba3d 1b9d 75bc
00000240: b583 1cbd 35bf d53b d5aa 303d c4dc 1dbd
00000250: b9b9 78bc bd43 f83c 014a 973c 0ec7 aabd
00000260: 0fad dc3c c098 38bd 58c6 0e3c f31f b03c
00000270: c0c0 ff3a 3372 ad3d bc1c eabc bac0 d93c
00000280: 94ad 033d e8b7 45bd 5655 993d 8e5e 92bd
00000290: 0f69 49bd 3183 d2bc 7d10 713d a8c5 a03d
000002a0: f7c2 9e3c 46ed 65bd e39c 3bbd c158 10bd
000002b0: c2e7 98bd f1e3 51bd a5b4 c7bd e9e9 3a3c
000002c0: f7b2 92bb 7c79 febc 97ec 603d 1556 853b
000002d0: e025 39bb 114b 76bb 08c8 cc3c 6436 18be
000002e0: 14a5 003d 2efb bf3b e0a8 db3c 0a0e 643d
000002f0: ba23 5dbd 6cd7 d73c 6097 3dbd ffec 8c3d
00000300: 85a0 843d 3847 9d3d 1371 843c 10f0 22bc
00000310: ff20 383d d9c6 6ebd bea0 acbd 6d5f b43d
00000320: 972d 253d 1ea6 c43c 5022 d8bc f43d b0bd
00000330: a0e7 8ebd d393 a4bd 3505 6bbd 5ba3 febb
00000340: fb02 903b 533e 7fba 14da 27bd 10ef 32bc
00000350: 20cc 2b3d 6450 3fbd 1bc2 bb3c 6f62 22bd
00000360: 73f6 40bc e002 5abc 2a45 31bd 066f c83c
00000370: 5fa4 c2bc 537c c53d 64ef 2d3b 4279 24bc
00000380: 9c3b 9ebd 78a0 1f3d 9b66 76bd a7c6 173d
00000390: 8e29 8b3d f420 3ebd fe5a 9fbd 1ecf 0e3d
000003a0: 453d 48bd 07ca 83bc 0c97 193d 0052 2f3d
000003b0: 499e a7bd aab8 123d 5eb2 6abd 6bb1 a0bd
000003c0: 3088 68bc 5e90 793c 99f9 af3d 3745 7dbd
000003d0: d49a 713d 69ba 613d eb00 8fbd ecf0 e03c
000003e0: f526 6dbd 48ad 47bc 4881 22bc 1fc6 683d
000003f0: 0024 acbd 0237 91bd e31a 253d 6453 a83c
0.0033577308 -0.018928915 0.041597776 -0.032034513 -0.08000015 0.025006637 0.06545132 -0.068119474
-0.028211843 0.04018932 -0.051128834 -0.00097469403 0.02847383 0.02388344 0.06271487 0.03634666
-0.06717777 -0.07936658 0.009705 0.07500104 0.06671916 -0.015225544 -0.0552913 -0.031048188
0.012882829 -0.026844516 -0.00811442 -0.012234628 0.017412841 0.015226789 0.009272486 -0.058407746
0.0636955 0.012972919 0.045914613 0.037328877 -0.04760025 -0.064258955 0.0688206 0.022854231
0.026192717 0.059438102 -0.019605942 -0.0048969686 0.039611075 0.030760676 0.008506373 -0.022746127
0.00042041074 -0.05593085 0.035802707 0.012469446 -0.07352396 0.07446719 0.032547146 -0.0039677024
-0.06560831 -0.07537542 -0.014246173 0.054615878 0.055368356 -0.061821565 0.0836258 0.007094791
-0.08769979 0.025001802 -0.03248875 -0.061973967 -0.044328358 -0.0584444 -0.022810519 0.021686755
0.045184128 -0.019335685 -0.10975085 -0.020766892 -0.083565734 -0.027249416 -0.011404731 -0.080555566
-0.057005946 0.037183505 -0.016274003 -0.07266436 -0.052417535 -0.039581306 0.08127042 -0.055486914
-0.0939583 -0.06540088 -0.027190387 0.035548404 0.06897425 -0.0073429802 -0.07149508 0.008807428
0.011595897 0.018761985 -0.027816858 -0.04709356 -0.009803536 -0.05433437 0.049652956 -0.08621751
-0.064675264 0.036051832 0.0645192 0.007805711 0.0714973 -0.08440787 -0.0708154 0.061107077
0.06431536 0.009695068 0.046862446 0.058217354 0.0048763547 0.00964462 -0.038889337 0.0041230335
0.08448342 -0.039803483 0.028077438 0.069750324 0.048484515 -0.010599501 -0.06721205 -0.10679483
0.059452534 -0.013476819 0.026625326 0.0114962235 0.021745754 -0.078622594 -0.044416063 0.06322682
-0.024795545 -0.04385365 0.04078576 0.04311833 0.02476847 -0.0019719712 0.0909036 -0.01499107
-0.038211543 0.006523038 0.043131668 -0.038540617 -0.0151809985 0.030305738 0.018467905 -0.08338748
0.02693799 -0.04506755 0.008714281 0.02149961 0.00195124 0.084690474 -0.028578155 0.026581157
0.03214796 -0.04827109 0.0748698 -0.07146941 -0.049172457 -0.025697323 0.058853615 0.078502
0.019380076 -0.056134485 -0.045803916 -0.035240892 -0.07466079 -0.051242772 -0.09751252 0.011408308
-0.0044769007 -0.031063788 0.05491313 0.0040690997 -0.0028251335 -0.0037581364 0.024997726 -0.14864498
0.03140743 0.0058588004 0.026813924 0.05567745 -0.05398915 0.026347838 -0.04628694 0.06881141
0.06475929 0.076795995 0.0161672 -0.009944931 0.044953343 -0.058295105 -0.08429097 0.088072635
0.04032668 0.024004992 -0.026383549 -0.086055666 -0.06977773 -0.08036008 -0.057378013 -0.0077709383
0.0043948865 -0.0009736765 -0.04097946 -0.010921255 0.041942716 -0.046707526 0.022919705 -0.039644655
-0.011777508 -0.0133063495 -0.04327885 0.024467003 -0.023760019 0.096428536 0.0026540393 -0.010038676
-0.07726213 0.038971394 -0.060156446 0.037054684 0.06795035 -0.046418145 -0.07781027 0.03486549
-0.048886556 -0.016087545 0.037497565 0.04280281 -0.081844874 0.03582064 -0.05729901 -0.0784634
-0.014192626 0.015232174 0.08592529 -0.061833587 0.058985546 0.055109415 -0.06982597 0.02745863
-0.05789848 -0.01218731 -0.009918518 0.056829568 -0.08405304 -0.0709057 0.040308844 0.020547576

rdf_branch.2.bias f4 [128]
00000000: 3fac 1bbd 0f16 9dbd 1018 16be 5ccb c93c
00000010: 475a 5abd e16d cfbd 1c42 0abd 36a6 f33c
00000020: 6548 22bd dc39 173d fea9 49bd e287 76bc
00000030: b226 323d 325c 28bd 3933 48bd e23f 1dbe
00000040: 0742 7a3c ea7f 573e f3d0 06bd 08c3 4abc
00000050: fb6d b2bd 72dc ac3c 2109 d7bd a5e0 f43b
00000060: dd8c 29bd 132f 163e a34f 5e3e a156 9f3d
00000070: eff8 3ebd fe48 3fbb 9d51 14be 64fc a53d
00000080: 51b0 23bd 1ed6 40be 8ce0 87bc f7fc 59bd
00000090: 43de f5bd 4512 1c3d d416 233d 55aa 92bd
000000a0: aadd 32be 6a4e ed3d c2e7 c7bd 708e 1bbd
000000b0: 0ca6 723d 4bc7 ddbd e37d 243e 659f 17bc
000000c0: cce7 3bbd 31b4 39be 0e51 913d 9d41 7cbd
000000d0: 2346 293e 4129 c8bb fa8c a7bd 9a58 953d
000000e0: 08ee bd3c f999 44be c56e 0e3d 80a5 f0bc
000000f0: a27a 8bbc 0eec a5bd 4ed9 1b3d f29d 2d3d
00000100: 5a08 873d c568 523d 47c5 b0bb 522a 6fbc
00000110: 393e 77be 7ace 31be adea 65bd 2d57 ec3b
00000120: a7b2 bc3c ac50 9cbd 1af1 7b3c 61cc cfbd
00000130: 5a67 233d 3c5f f8bd 6dfe 9fbe 6704 95bd
00000140: 9beb 08bd d9fc 4d3c 7f42 9cbd 46b5 183d
00000150: d060 a53c d126 8a3d d265 79bd 141e edbd
00000160: e3d4 c63d c450 f2bd 6966 893d 805e 63bd
00000170: 2bce 98bd 47bf 953d f5bb 89bd 3b75 963d
00000180: 272d d2bd 9901 8b3d 72a4 afbd 4a3f 923d
00000190: 50e2 e9bd 272a c43d 7b19 b73d 4e88 6d3c
000001a0: c1ef d5bd faff 113d a1aa 97bd 82b3 313c
000001b0: 4ab6 103e 3bc1 67bd 6eb4 7cbd e8ba 9ebd
000001c0: 1475 f23a b766 9a3d 87a4 f13b 10fd c0bd
000001d0: 6930 893d 649c d6bd a5a8 7ebd 831e 3f3e
000001e0: 40be 5fbd fecc 10be 68eb 0bbe 2de8 1ebe
000001f0: c284 93bd 9768 983d c420 54bd cf9e d4bd
-0.038006064 -0.07670223 -0.14657617 0.024633102 -0.05330875 -0.101283796 -0.033754453 0.029742341
-0.039619822 0.036920413 -0.049234383 -0.015047045 0.043493934 -0.04110355 -0.048876975 -0.153564
0.015274531 0.21044889 -0.032914113 -0.012375601 -0.08712383 0.02110121 -0.10499788 0.007473069
-0.041394103 0.14666395 0.21710066 0.07780195 -0.04662412 -0.0029187794 -0.14484258 0.0810478
-0.03996307 -0.18831679 -0.016586564 -0.05321976 -0.12005284 0.03810336 0.039816692 -0.071613945
-0.1746737 0.11587222 -0.09761001 -0.037977636 0.059240386 -0.10829028 0.16063647 -0.009254311
-0.045875356 -0.18135144 0.07095538 -0.06158601 0.16530661 -0.0061084335 -0.08181186 0.0729229
0.023184791 -0.19199361 0.034773607 -0.029375792 -0.01702625 -0.081016645 0.038049035 0.042386957
0.0659339 0.051369447 -0.005394611 -0.014597492 -0.2414483 -0.17363921 -0.056132007 0.0072125406
0.023034407 -0.076325744 0.015377307 -0.10146404 0.039893486 -0.121275395 -0.312488 -0.0727623
-0.033427816 0.012572491 -0.076298706 0.03728225 0.020187765 0.06745685 -0.06088812 -0.115780026
0.09708574 -0.11831811 0.06708986 -0.055510044 -0.074611984 0.07311874 -0.06725303 0.07346579
-0.102625184 0.06787414 -0.08576287 0.07140978 -0.11420119 0.095783524 0.08940407 0.01449783
-0.1044612 0.03564451 -0.07405592 0.010846021 0.14132038 -0.056580763 -0.06169551 -0.07750493
0.0018498027 0.075391226 0.0073743495 -0.09423268 0.06698687 -0.10479048 -0.06217255 0.18663983
-0.054624796 -0.14140698 -0.13664019 -0.15518256 -0.07203056 0.07441824 -0.05178906 -0.10381853

density_branch.0.weight f4 [64, 1]
00000000: 788c 063f 80a0 9dbd 1cf5 3cbf 6dde 51bc
00000010: c152 0ebe a8af 44bf c305 503e 9062 54bd
00000020: 63ca f63e a89c 63be 6204 45bf 28f7 eebe
00000030: 864b 99bc fc86 353f 9c69 b43e d01d a6bd
00000040: 50bf 82be 7e29 af3e 4445 9fbe e89e 1bbd
00000050: 89ad 82bf 4ea7 de3e 7eb7 68bf b915 353f
00000060: 8952 513f 719d 34bf 4f70 1c3f b9c1 a1be
00000070: 6c13 80be a227 0abf 6bee c83e 8085 383c
00000080: 78d8 dc3e ebe1 6f3e c43b 1dbf 02ab b03e
00000090: ecb5 aabe 77a8 883f 40f0 a53e 7226 71bf
000000a0: 3036 87bd bc20 d1be 2817 27be 7f3f 52bf
000000b0: 7b21 7f3e a81c 9d3e 089d d83e 410f 97be
000000c0: 514d 2e3f b748 513f 4fd7 5c3f 8611 74bf
000000d0: 98a5 e33e b2c5 a13e deea 4e3e 199a 183f
000000e0: 3030 7fbf c1ff 30bf 29e1 d33e 26d3 3dbf
000000f0: 606c 6b3f 4aca 59be 07ec 773f aadf 02bf
0.5255809 -0.076966286 -0.7381151 -0.012809378 -0.13898756 -0.7683053 0.20314698 -0.05185181
0.48201284 -0.22227728 -0.7695981 -0.4667294 -0.01871277 0.70909095 0.35236824 -0.08111155
-0.25536585 0.34211344 -0.31107533 -0.03799334 -1.0209209 0.43487018 -0.90904987 0.7073627
0.81766564 -0.70552737 0.6110887 -0.3159311 -0.25014818 -0.53966725 0.39244398 0.011262298
0.43133903 0.23426025 -0.6141932 0.3450547 -0.3334192 1.0676411 0.3240986 -0.9419929
-0.06602132 -0.40845287 -0.16317427 -0.8212814 0.24915116 0.30685925 0.42307305 -0.29503825
0.68086725 0.8175158 0.86266035 -0.9533924 0.44462276 0.31596142 0.20206782 0.59610134
-0.99682903 -0.6914025 0.4138272 -0.7415031 0.9196224 -0.21268573 0.96844524 -0.51122534

density_branch.0.bias f4 [64]
00000000: dace 08be 3447 80be 0cb3 c9be 84d6 5b3f
00000010: 746c fd3d 23a4 7f3f be1b 4b3f 3027 173f
00000020: 42de f7bd a686 6bbf df18 353f a629 5cbf
00000030: 77f6 c63e b3a3 fd3d 7630 70bf 6410 fabe
00000040: 3043 a0bd 9a00 353f 51b1 543f 924f 573f
00000050: 50fb 6b3f 1a77 793f b035 59be 716b 94be
00000060: 12db a2be a7f8 6b3f 2e45 123e 23c6 173e
00000070: cc55 2bbf 207b ac3d dfcb 23be d851 28be
00000080: e8a4 dbbe 3917 2cbc 0073 973d fbd1 463f
00000090: 3476 4cbf 114a bfbe a4e6 5d3f c914 7a3f
000000a0: 2486 3bbf 92e9 18bf f400 73bf 6674 3d3f
000000b0: 44f2 33bd 487e 19bf 680f 12bf ee00 3f3f
000000c0: f3e9 fd3d 0559 b2be fcdd 4cbe 3365 5c3f
000000d0: 8e28 803d b19c 62bc 7aab 5d3f a4b5 493f
000000e0: a878 aabe dc57 203f 1e9b 0ebe 5892 40be
000000f0: 7ba6 1ebe 5bdd 0a3f ffaa 51bd 304d b6be
-0.13360158 -0.25054324 -0.39394414 0.858742 0.123742014 0.9985983 0.79339206 0.5904417
-0.12102939 -0.9200233 0.70741075 -0.8600105 0.38859913 0.12384739 -0.93823946 -0.4884063
-0.07825315 0.7070404 0.83083063 0.8410579 0.9218035 0.9744736 -0.21211886 -0.2898822
-0.31807762 0.9217629 0.14284202 0.14821677 -0.6692779 0.08421922 -0.1599574 -0.16437471
-0.4289925 -0.010503584 0.073949814 0.77664155 -0.79867864 -0.37361196 0.86680055 0.97687966
-0.7325156 -0.597314 -0.9492333 0.74005735 -0.043932214 -0.59958315 -0.5705476 0.74610794
0.12398138 -0.34833542 -0.20006555 0.8609192 0.06257735 -0.013831303 0.8658978 0.78792787
-0.33295178 0.6263406 -0.1392636 -0.18805826 -0.15493195 0.5424401 -0.051188465 -0.35605764

density_branch.2.weight f4 [64, 64]
00000000: b605 fdbd 006e 72bd 8865 febc 0080 ef36
00000010: dc2e 85bd 6017 28bc 0ab2 c7bd 30f0 2e3c
00000020: bcb2 75bd 569a 913d e8b7 3c3d e800 8c3d
00000030: ac4a 0fbd 40fa 403d 18f3 11bd 5c39 eebd
00000040: 0809 7ebd e837 14bd 9c33 29bd d6eb 85bd
00000050: 9c8d 55bd b214 f8bd 0487 53bd 5495 1fbd
00000060: 344b b5bd 3846 73bd d4ed 9d3d 5c01 153d
00000070: 584e 93bc 1867 b23c fee2 d33d 5026 73bd
00000080: 484f b23d 56ed e53d 4086 4ebc 0cde d03d
00000090: 041b 6abd f45d 883d 3470 773d 822b 823d
000000a0: 540f 7e3d b0ef 30bc 423c 8b3d 0847 07bd
000000b0: a0bb e43d 9a83 b4bd 58c1 443d 6834 a33c
000000c0: c078 a6bd c6a5 81bd eacb 943d 6868 ec3d
000000d0: c016 ed3b 663a a03d 2605 8bbd f072 063c
000000e0: dc4c ce3d 6e3c 8b3d 5814 babd 389f 233d
000000f0: b0e3 753c b816 adbd c65f eb3d 0037 6c3c
00000100: 907d a0bc 04d1 723d e046 ef3b c025 6bbc
00000110: 3c20 733d 40ad 873c 4a0a b3bd 1006 efbd
00000120: 9086 563d 4874 91bc e651 f6bd 70dc 2c3c
00000130: 283e d1bc 042b 52bd 061b e93d a8ea d23c
00000140: 68f9 323d d056 9abc e057 a53c 2cee ce3d
00000150: 0a83 8b3d 7a54 9bbd fa12 b0bd e895 cbbd
00000160: 9e85 903d ea0a b1bd fc53 e23d 4e43 cfbd
00000170: 1873 92bc 0069 d43a 402d 74bc e401 163d
00000180: 8053 263d 9898 ad3d 8031 4a3d 48b9 ba3d
00000190: 94de 55bd c0a2 853c ac6b 703d c0e7 d7bc
000001a0: d60b c73d c450 e83d 9027 54bd b0c1 033d
000001b0: 70e2 403d e8cd 1d3d 1472 86bd 8021 793d
000001c0: 008d 64ba f853 a9bc 0cae 11bd 96b0 f0bd
000001d0: d4c7 bebd 30a0 e93c 3872 d2bd 3090 a7bd
000001e0: bcf5 39bd d419 6abd c6ed cdbd b0e8 1ebc
000001f0: 4006 943b 54ea bf3d 806d ddbc 243f a53d
00000200: 1b75 7a3d ae5b b13d b0bf 06bd 3a4b dcbd
00000210: 5b44 d73d b70a f7bc 474e 813c 386b 07bd
00000220: aa02 f33c 7073 63bc 6e67 a4bd 50a5 ff3d
00000230: 0839 62bd 271a d53d d0d0 33bc 12ce 933d
00000240: 88b8 da3d 965b d73d b43b b1bc f7e9 b5bd
00000250: beda ebbd f2ef 73bd 8090 943d 8d4b 8a3b
00000260: 2501 ba3d 6a39 d23d 73f8 d43c 7e43 38bc
00000270: e8cc c83c 12cd aebd c396 4abd 06d5 d73d
00000280: a83a 74bd 524f 163d 1ac0 9dbd 8144 94bd
00000290: e0bc 9c3d 34ba 03be e4e5 07be 2f23 283d
000002a0: 80a5 c6bb 5e1e e03d 3410 153d 0089 9cbd
000002b0: 95f0 003d d441 163d 6c29 58bd 205a 923c
000002c0: 8123 383d 507d d4bc ad65 c03a 0183 c9bd
000002d0: 9225 e23d 31ef 04be fd84 c43d 6008 723d
000002e0: 88f6 f1bd 5d40 6b3c e00c 993d 167b eebd
000002f0: 5507 d4bb caae 02bd 5073 c6bd 5032 86bc
00000300: b8f6 b03d 78ff 7ebd cca5 0d3d 8c6e eb3d
00000310: efa6 79be ab8f 813a ff5f ef3b 17c5 d13d
00000320: 81cb 833e 1a73 b23d 4175 f6bd 24f9 8d3d
00000330: 287a f13c d5fa 093e a079 913d 08b6 8bbd
00000340: 4a44 d4bd 0399 36bc c4a0 e73d e9fe 043e
00000350: ad4f cfbe 6b44 a63d a072 583d 2e18 ae3e
00000360: e876 9d3e db21 1abe 1f59 93bb 4b18 3cbe
00000370: b8db 923c 6847 f63c 6f99 373e dc0f 0a3d
00000380: 2c1a 7e3d c3c3 0c3d 90e2 74bc cad6 073d
00000390: d843 bd3d 935a 963e 38e6 bd3c f0cb 6bbe
000003a0: b460 babd f626 86bd 14e4 d43d b6ef aebe
000003b0: 0daf d83d a06a 543c 6013 b3bc bbc8 f9bc
000003c0: 1354 0e3c 31ed a03e 945b 5b3e 1a30 e3be
000003d0: c198 483e cb1e 4b3e 0963 8a3d da6d b03d
000003e0: e0ef 1abc 1f46 bfbe ca0b 653e 864a a83d
000003f0: 63d7 1e3e a3cf 16bd b0e6 ad3d a8e9 213d
-0.12354605 -0.059186935 -0.031054273 7.137656e-06 -0.06503078 -0.010259479 -0.09750755 0.010677382
-0.059984908 0.07109515 0.046073824 0.0683611 -0.034983322 0.047113657 -0.035632223 -0.11632034
-0.06202033 -0.03618613 -0.041308984 -0.06539123 -0.052137002 -0.12113322 -0.051642433 -0.03896077
-0.088522345 -0.059393138 0.07711378 0.03637825 -0.017981693 0.021777675 0.1034603 -0.05936271
0.08706528 0.11226909 -0.01260525 0.10198602 -0.05715467 0.06658545 0.06040974 0.06355955
0.062026337 -0.010799333 0.06798603 -0.033026725 0.11168599 -0.088141635 0.04803595 0.01992245
-0.081285 -0.06330447 0.07265456 0.115433514 0.007235378 0.078236386 -0.06788091 0.008206114
0.100732535 0.067986354 -0.090859115 0.039946765 0.015007898 -0.08451599 0.11492877 0.01441741
-0.019591123 0.059281364 0.00730215 -0.014352262 0.059356913 0.016562104 -0.08742197 -0.11671078
0.052374423 -0.017755643 -0.1202734 0.010550603 -0.025542334 -0.051310554 0.113821074 0.025746658
0.043694884 -0.018840224 0.020183504 0.101040214 0.06812103 -0.07584472 -0.085973695 -0.09940702
0.070567355 -0.0864466 0.11051175 -0.10120259 -0.017877147 0.0016205609 -0.014903367 0.036622897
0.040606976 0.084763706 0.049363613 0.09117371 -0.05221422 0.016312957 0.058696434 -0.026355624
0.097190544 0.1134353 -0.051795542 0.032167137 0.047090948 0.038526446 -0.065647274 0.060822964
-0.00087185204 -0.020669922 -0.035566375 -0.11752431 -0.09315458 0.028518766 -0.10275692 -0.081817985
-0.045400366 -0.057153538 -0.10055117 -0.009699032 0.0045173466 0.093708664 -0.027029753 0.08068684
0.061146837 0.08660065 -0.03289765 -0.10756536 0.10511085 -0.030156476 0.015784396 -0.033061236
0.029664356 -0.013882503 -0.0802754 0.12482703 -0.05523017 0.10405379 -0.010975078 0.07217039
0.10679728 0.105155155 -0.021634914 -0.08882516 -0.11516331 -0.059555 0.07254124 0.004220432
0.090822496 0.10264857 0.025997376 -0.01124656 0.02451177 -0.08535208 -0.049460184 0.10538678
-0.05962625 0.03669674 -0.07702656 -0.072396286 0.076532125 -0.12864 -0.1327129 0.04104918
-0.0060622096 0.10943292 0.036392406 -0.07643318 0.031479437 0.036683872 -0.052773878 0.01786524
0.044955734 -0.02593866 0.0014678739 -0.0983944 0.11042322 -0.1298187 0.09595678 0.05909002
-0.118146 0.014358607 0.07473159 -0.116445705 -0.0064706006 -0.031904973 -0.09689963 -0.016381413
0.08640808 -0.062255353 0.034581944 0.114956945 -0.24380086 0.0009884735 0.007305145 0.1024267
0.257412 0.0871336 -0.12034083 0.069322854 0.029477194 0.13474591 0.07103276 -0.06821829
-0.103645876 -0.011144879 0.113099605 0.12987866 -0.40490475 0.081185184 0.05284369 0.34002823
0.3075478 -0.15051977 -0.004496708 -0.18368642 0.017927036 0.030063346 0.17929624 0.03370653
0.06203668 0.03436638 -0.014946595 0.033163823 0.09241456 0.29365978 0.023181066 -0.23027015
-0.09100476 -0.065504 0.10395065 -0.3416726 0.10580263 0.0129648745 -0.021859825 -0.030491224
0.008687037 0.31430963 0.21421653 -0.44372636 0.19589521 0.19835965 0.06757171 0.086147025
-0.009456605 -0.37358186 0.22367778 0.08217339 0.15511851 -0.03681911 0.08491266 0.039529473

density_branch.2.bias f4 [64]
00000000: 24da 003d 18c1 b8bd 7034 3b3c 2fd9 a63d
00000010: 2fa8 f5bd 385f 713d 907b 4b3c 1cc4 923d
00000020: b40a 56bd 30a0 38bd f0bc d2bd c0e3 3dbc
00000030: 03ec 9ebd ac05 d4bd 20be 4e3c 02c7 b4bc
00000040: 6705 83bd 5a03 e7bd 9e8b 56bc c2c6 d3bd
00000050: 4c66 1f3d b8eb fbbd a097 953b 40f3 383d
00000060: dbda 673c c047 4abc 86e3 d53d b704 b13d
00000070: 7583 303c 74f4 f73c 291c ce3d 5ed5 f93d
00000080: 92a4 973d 1544 ed3d 9e62 69bd 4876 0b3e
00000090: bfc8 ca3d 7937 bf3d 7ac4 9cbc 2692 acbd
000000a0: ac39 f63d d253 94bd 54e6 86bd 2095 4dbd
000000b0: 813e a0bd c85f 823d 0038 c839 1e54 25bd
000000c0: 96be e63d f0b2 a03c 10c7 5cbc b48e b9bc
000000d0: 601d fcbc 8ca3 99bd f05f 093d 0047 7d3b
000000e0: 369a d7bd d75c 153e 90a7 ee3c c0e9 e93b
000000f0: 40ec 56bb f8de 9e3d f117 163d 27f6 0c3e
0.031458035 -0.09021205 0.011426076 0.08146893 -0.11994969 0.0589287 0.012419596 0.07166311
-0.0522563 -0.04507464 -0.10289943 -0.011589944 -0.077598594 -0.10352644 0.0126185715 -0.02206755
-0.06397515 -0.11279936 -0.013094811 -0.103406444 0.038915917 -0.12300819 0.0045651942 0.045153856
0.0141513 -0.012346208 0.10443787 0.086434774 0.010773529 0.030267932 0.10063965 0.121989
0.07404436 0.11585251 -0.056978814 0.1361934 0.099015705 0.093367524 -0.019136656 -0.08426313
0.12022719 -0.0724255 -0.065869 -0.050191045 -0.07824422 0.06365925 0.00038188696 -0.040363424
0.1126682 0.019616574 -0.013475195 -0.022651054 -0.030775726 -0.07501897 0.03353876 0.0038647056
-0.1052746 0.14586197 0.029132634 0.007138461 -0.0032794625 0.07757372 0.036643926 0.13765775

merged_head.0.weight f4 [128, 192]
00000000: 0eb3 bcbc 3804 153a d75e 14bb 9d7b cabc
00000010: fc00 753d 0a0b 4c3c 9138 86bd 8fd7 45bc
00000020: 85be 7fbc ad7f 3e3d 3ddc 043d 2d5e 3cbd
00000030: 1b59 8c3c f3b0 85bd 5fd5 e63c 7011 40bd
00000040: 33ea 3fbd cdd2 263d c7cb 0abd 547e 97bd
00000050: c843 f93c fcb8 6c39 c2f6 813d 11df 22bc
00000060: d4c3 16bd d4a7 2d3c 87a0 78bd 1767 453d
00000070: aeab a1bc 601b ad3b 0ca4 5e3d 5de0 25ba
00000080: 9d62 1bbd 9dbd 4fbd e98d 90bd 5eef 8dbc
00000090: e936 31bc a334 823d ffd8 04bd 64e3 20bb
000000a0: 3ad7 633d 8a8e 9a3c c541 733d b807 20bd
000000b0: b21c cdbd ddd1 c1bc fa26 e53a f55a 84bb
000000c0: d528 72bd c129 723b bb69 3c3d 90d2 5fbd
000000d0: 2130 7fbd deb8 303d d947 51bd b851 20bd
000000e0: 771c e5bc 2e05 e7bc 5ee5 92bd 6974 8dbd
000000f0: 6e59 c53b a291 84bd 42b5 07bd dd7e 87bd
00000100: 4271 16bb d0a7 12bd 2611 503d 7dc7 7dbd
00000110: 4c1b b3bc 1ccf 283d 5e77 b0bc 5857 79bd
00000120: b3e1 6fbd 8069 7d3c c5fd e03c 10c5 07bd
00000130: 7e6a cd3c 3195 53bd 7900 083d 084f 02bc
00000140: c9fa 223d b739 543c 63bb 1ebd bf18 5eba
00000150: ae11 4ebd 5e74 0d3d bb84 01bd ec11 a2bd
00000160: abf3 dfbc dd46 4e3d bc54 343d a854 8a3d
00000170: ed5a 823d 35a2 be3b 80e5 303d e632 f1bc
00000180: 1b7d 0c3d 82d5 503d bc83 733d cfae 0c3d
00000190: d097 593b 24f9 263b cf22 c3bc c2fa 30bd
000001a0: 941e aabd bc89 7b3d 4357 023d 5997 753c
000001b0: e6f2 f43c 4ffe 0c3b c8d2 17bd c08c 713d
000001c0: 224f 5abd 2114 b53b 7d93 e2bc 052c 3bbd
000001d0: fc23 083d 089e 2fba 1442 fabc 9d7a 5f3d
000001e0: 0043 173d 1750 25bd 8cf3 be3c 514a 4e3c
000001f0: f406 693d 00f1 d0b9 d101 9bbd 755d 3cbd
00000200: b8fc bd3c 90bf 873d 74f6 56bd b8ae 98bd
00000210: dfea 813d f244 63bd 4149 43bc 9081 abbc
00000220: 8691 153d dc82 fc3c 2c34 f1bc 6bf5 91bd
00000230: ca80 32bd 71a6 8dbd e836 2e3c c6b8 a0bd
00000240: 971e a1bd 0176 333d 971e ef3b 003f ff39
00000250: 809f 65bc c0bf c63a acb2 8a3d 80a9 443d
00000260: 8c97 563d 746d 6bbd 7c8c c0bc 06bb 443d
00000270: 40aa 413d 9449 fb3c a51a 0c3c 4c6a b13c
00000280: 3c98 2e3d f84a ff3c a2e9 ef3c 2cb1 42bd
00000290: 6ce7 f13c a904 72bc c4e8 66bb 05b8 07bd
000002a0: a217 a3bd aa99 3dbd 4c0f 8e3d 2c04 bc3c
000002b0: fea8 163d 5027 a83c 8dfe 0cbd 37ac ce3c
000002c0: 408c f73c 5411 603d 46ab 203d c64b bbbd
000002d0: 18e8 6ebd 429b 29bd 1c7e 1c3d 1cf0 863d
000002e0: a813 26bd c555 693d f070 993b 8835 b23c
000002f0: 8877 5a3d b0b2 25bd f2e9 2c3c 6953 a6bd
00000300: 92a7 4e3d 40ed ec3c dac7 27bd dede 333d
00000310: 687d 30bc cea0 6ebd ca11 5f3c 4967 19bd
00000320: b1ab adbd c919 ff3c 0f68 9c3c 7ae4 d83c
00000330: 79e1 5e3c c5b9 77bd 17f3 51bd 210c 84bd
00000340: e219 cd3c a0df bdbc 3491 c3ba ba13 893d
00000350: b266 6ebd 5a1d 893b 5415 743d 1e13 cf3c
00000360: fb39 0b3d dd88 bebd d643 debc a1cc a5bb
00000370: 766d 3a3d a429 4d3d 3af9 34bc b0a8 a23c
00000380: 56f3 84bc 3e42 97bd ef16 7bbd 86a5 2bbd
00000390: a11d 5cbd 6143 103d 527c 113c 9025 063c
000003a0: 118f 51bd 57f7 53bc a557 3d3d 1bb6 87bd
000003b0: 31d0 a1bd b7ab 81bd 65af bfbc 22e8 82bd
000003c0: 022a 1f3d 8bc5 203d 24b5 633c 7f63 89bd
000003d0: e535 69bd bac8 16bc 9026 373d 7ff9 433d
000003e0: 0fe0 24bd 80bf 4cbc d50d 513d 1f0c 6ebd
000003f0: 9bb5 63bd 11b7 003d aa4f 45bd 2621 573d
-0.023034599 0.00056845276 -0.0022639537 -0.024717147 0.059815392 0.012453804 -0.06553758 -0.012075319
-0.015609388 0.04650848 0.032436598 -0.04598825 0.017132333 -0.06527891 0.028177915 -0.04689163
-0.04685421 0.04072838 -0.033885743 -0.07397142 0.030427828 0.00022575626 0.063458934 -0.0099408785
-0.03680785 0.010599095 -0.060699966 0.048194017 -0.019735184 0.0052828044 0.054355666 -0.0006327683
-0.03793584 -0.05071794 -0.07058317 -0.017326053 -0.010816314 0.06357696 -0.032433506 -0.0024549598
0.055625178 0.018866796 0.059388895 -0.03906986 -0.10015239 -0.02365964 0.0017482929 -0.0040391632
-0.05912097 0.0036951157 0.04599927 -0.054644167 -0.06230176 0.043145053 -0.05109391 -0.039140433
-0.027967675 -0.028200712 -0.071726546 -0.06906969 0.0060226237 -0.0647309 -0.033131845 -0.06615994
-0.002295569 -0.03580457 0.050797604 -0.061957825 -0.021863602 0.04121314 -0.021541294 -0.060874313
-0.058564853 0.015467048 0.027464757 -0.033146918 0.025075193 -0.051655952 0.033203576 -0.007953413
0.03978995 0.012953213 -0.038752925 -0.00084723154 -0.05030983 0.034534805 -0.031620722 -0.079135746
-0.02733787 0.05036055 0.04402612 0.06754428 0.06364999 0.0058176764 0.04318762 -0.029443216
0.034298997 0.050984867 0.059451804 0.034346398 0.003320206 0.002547809 -0.023820309 -0.04320789
-0.083066136 0.06141065 0.0318215 0.014989697 0.02990098 0.0021513884 -0.03706625 0.05897212
-0.053298123 0.005526081 -0.027658219 -0.045696277 0.033237442 -0.00066992687 -0.030549087 0.054560293
0.03692913 -0.040359583 0.023309492 0.012590961 0.056891397 -0.0003985241 -0.07568706 -0.045987565
0.023191795 0.066283345 -0.05248113 -0.074552 0.06343626 -0.055485673 -0.011919321 -0.020935804
0.036515735 0.030824117 -0.029443823 -0.07126888 -0.043579854 -0.06916512 0.010633208 -0.07847743
-0.07867163 0.04381371 0.0072973478 0.0004868433 -0.014015079 0.0015163347 0.0677236 0.04801321
0.05239062 -0.05747743 -0.023504488 0.048029922 0.047281504 0.030674733 0.008551274 0.021657132
0.04262565 0.031163678 0.02928621 -0.047532246 0.029529296 -0.014771619 -0.0035233954 -0.03313448
-0.07963492 -0.046289124 0.069365114 0.022951208 0.036782257 0.020526558 -0.034422446 0.025228603
0.030218244 0.054704025 0.03922584 -0.09145312 -0.05832681 -0.04140783 0.038206205 0.06588766
-0.04054609 0.05696656 0.0046826527 0.021754041 0.05333665 -0.040453613 0.010553824 -0.08121378
0.050452776 0.028921723 -0.040962078 0.043913715 -0.010772087 -0.058258824 0.013615081 -0.037452016
-0.08480013 0.031140225 0.019092588 0.026476134 0.013603562 -0.060479898 -0.05125722 -0.06447626
0.025036756 -0.023177922 -0.0014920593 0.06693216 -0.058203407 0.004184407 0.059590653 0.02527767
0.03399084 -0.09303448 -0.027131956 -0.005059794 0.045514546 0.05008854 -0.011045748 0.019855827
-0.016229313 -0.073856816 -0.061301168 -0.041905902 -0.053739194 0.035220508 0.008879738 0.008187667
-0.05116183 -0.012937388 0.046226162 -0.06626531 -0.079010375 -0.0633158 -0.023399064 -0.06391932
0.03885842 0.03925089 0.013898168 -0.067084305 -0.056936163 -0.00920313 0.04471451 0.04784536
-0.04025274 -0.012496829 0.051038582 -0.05811703 -0.055593114 0.031424586 -0.048171677 0.052521847

merged_head.0.bias f4 [128]
00000000: 5c3e 75bd 98f6 213d 2892 8abc 3195 04be
00000010: 6387 4bbd 26f1 253c 0d58 0f3d 1d11 233d
00000020: 571b 54bd 5828 3c3d bf3f 2e3d 7342 dbbc
00000030: f5ae 433d 69a8 d33c eb14 803d 426b 973d
00000040: 6afc 8bbd cfda 3c3d 4a3e 983d 87d2 883c
00000050: 06e2 83bd 39af 373d 2011 2bbd b513 543c
00000060: d6b9 c6bc a3b8 a3bd 1d21 c23d ac23 103d
00000070: bb67 2d3b 7b75 b4bd ded2 01bd a252 6a3d
00000080: 5353 3d3d 8926 b63c ba94 07bd da7f 8b3d
00000090: 9b98 343d e8f8 8a3d f183 0d3b f448 89bd
000000a0: e791 5c3c c1ad acbd 56d5 803d 372e a23d
000000b0: 1074 983c 4857 723d 44b6 ab3c c26e 613c
000000c0: 3528 b3bc aea4 a33c 9864 e33d 2944 dbbb
000000d0: b6a6 6a3d 294b ce3c dd93 0d3c a492 183e
000000e0: 165d 063e 0a09 9bbc e295 1dbd dd2b 87bd
000000f0: 1aa7 76bd bbfd 08bd 3e4a 303b 9bcd adbd
00000100: f3b8 d23d a4ff 503c e979 953d 2fb7 89bd
00000110: 71f8 e73d 4d23 97bd 4f48 72bd 6975 4c3d
00000120: 17a4 2bbc 5814 b93d fa7c 7fbd 5515 ebbb
00000130: 6cff 83bd e39b 57bb 0569 6a3d c451 1ebd
00000140: 26b9 e8bc 6ddc 06bd 7857 ee3d 3602 8abd
00000150: b085 eb3d f645 ab3d 2d84 53bd f1dd 90bd
00000160: 7bf7 7f3d 779e 16bd 2421 873c 8fa3 2a3d
00000170: ac83 9b3d ce5d 7c3d 72d7 2dbd 150d 42bc
00000180: df2e 383e e659 babd f007 ffbb d296 96bd
00000190: ec16 94bd 34d4 b93d ce43 2e3b ebd1 49bd
000001a0: 1e24 80bd 7b76 22bd 7987 99bc aa57 753c
000001b0: 8748 b1bc 393d 84bd dc02 a03c 46ee 60bd
000001c0: 15d9 babd ea3c 52bd 3990 ae3c 499b 923b
000001d0: 4c51 d63d 894b 45bd 3c58 eabc a34b 243e
000001e0: afb8 8fbd a51f 383d 4dc4 213d 3f27 493c
000001f0: 395c 85ba c632 30bd a5ae cfbb 2a64 adbd
-0.059873924 0.03954181 -0.016915396 -0.12947537 -0.04968966 0.010128295 0.03499608 0.039811242
-0.051783886 0.045936912 0.04254126 -0.026765084 0.047774274 0.02583714 0.0625399 0.07393505
-0.068352535 0.04610711 0.07433756 0.01670195 -0.06439595 0.04484484 -0.04176438 0.012944152
-0.024258535 -0.07994201 0.09478972 0.03519027 0.0026459533 -0.0881147 -0.03169524 0.05720771
0.046222042 0.022235172 -0.03310082 0.06811495 0.04409085 0.06785756 0.0021593536 -0.06703368
0.01346252 -0.084315784 0.062906906 0.07918971 0.01861003 0.05916527 0.020960934 0.013759317
-0.021869758 0.019975986 0.11103171 -0.006691475 0.057287894 0.025182324 0.00864121 0.14899689
0.13121447 -0.018925209 -0.038473018 -0.06600163 -0.060217954 -0.0334451 0.002689972 -0.08486482
0.102891825 0.012756262 0.07298643 -0.067243926 0.11326683 -0.0737978 -0.05915099 0.04991666
-0.010476134 0.090370834 -0.062375046 -0.007174174 -0.06445202 -0.0032899312 0.05722906 -0.038652197
-0.028408598 -0.03292506 0.11637777 -0.06738703 0.11500108 0.08362953 -0.051639725 -0.07073582
0.062491875 -0.036772218 0.016495295 0.041659888 0.07593474 0.061612897 -0.042441793 -0.011843939
0.1798663 -0.09099178 -0.0077829286 -0.073529854 -0.072309345 0.09073678 0.0026590708 -0.04927246
-0.06256889 -0.039663773 -0.018741356 0.014974514 -0.021641029 -0.0645699 0.019532613 -0.054914735
-0.09123436 -0.051327623 0.021309005 0.004474078 0.10464725 -0.04816774 -0.028606527 0.16044478
-0.070176475 0.044952054 0.039493848 0.012277423 -0.0010174579 -0.04301717 -0.006337958 -0.084663704

merged_head.2.weight f4 [1, 128]
00000000: 40e6 413d a4a2 143d fd51 e63c 2f48 f9ba
00000010: d3fa f43b 68a9 3a3d 8a1e febc ee25 95bc
00000020: 0db6 423d 6b2a c8bb 650d 8dbd 9501 993d
00000030: 3d83 1bbd d61f 913d 998d 4fbd 7831 7ebd
00000040: d0ab cebc 7f8c 873d c560 26bd d273 9e3c
00000050: 4cd1 083d 52c5 253c c7d7 c4bc 538b 62bd
00000060: 3743 483a d864 193b 0661 863d 59b9 6abd
00000070: 0fb0 883c 014b d9bc 50b7 c9ba d923 b4bd
00000080: 1fc0 9dbb a69d dc3c 1837 363d 6299 1dbc
00000090: 500e ab3c 18f7 c83e 7aff c8bc 22c3 0abb
000000a0: 3769 263a 1a5d 033d bdb1 8cbd 33ef c93d
000000b0: 9e8c 68ba 94a3 b63c a58d e63b 9963 7eb9
000000c0: 5b31 9bbc 9e76 6ebb 8a97 9abd 5cf8 f239
000000d0: a10f 3b3d 37a2 a7bb b47c 623b 67b5 483e
000000e0: 81e4 3ebd 2a39 3e3c c85b 623d 0a03 823d
000000f0: 3a10 e93c 4dcf 023b 4878 283b 40d2 61bc
00000100: 00f9 263e bea6 83bd 82dc 72bd f721 fe3a
00000110: 0c89 38bd a34d 59bd 4410 cb3a 4de8 b4bd
00000120: 77e6 2cbd c6ef b43e 1ab9 263d be91 0a3d
00000130: 1c6d 273d b8c4 5a3c 3e30 5d3d 2b34 583a
00000140: 8bc0 e73c 077a 733c 6115 15bd 2a84 b1bb
00000150: f097 3dbd 9add a9bb 2ad5 cb3a f6a6 1d3c
00000160: e0d0 8a3c ded1 743a 5ac2 783d 8356 2d3d
00000170: dd6d b1bd fe75 8bbd 0d71 563d 3998 98bc
00000180: 5288 d93e 8e62 bd39 97c8 5cbd e505 3bbd
00000190: 54e8 313d 873b 73bd f898 eb3c 9590 82bd
000001a0: 8b5a 873d e28a 363b 02ac 01bd c10b 173c
000001b0: f624 453d e190 133d 7f3f 823d 805b c73a
000001c0: f41f e83b 40ea fcbc 9c11 56bd d4e1 c03d
000001d0: a942 a4bc 0943 a53d 17b3 2aba 638d aa3e
000001e0: 70e6 6a3b c1fb 51bb 0e12 6cbd 9c80 203d
000001f0: b53b 3cbd 0a52 debb ab35 073d 1183 153b
0.047338724 0.03628792 0.028115267 -0.0019018705 0.0074761896 0.045571715 -0.031020422 -0.018206563
0.0475369 -0.0061085722 -0.068873204 0.07471005 -0.037966955 0.0708615 -0.050672147 -0.062058896
-0.025228411 0.066185944 -0.04061963 0.019342337 0.033402726 0.010117846 -0.024028672 -0.05530865
0.00076394103 0.0023406055 0.065614745 -0.057305668 0.016685514 -0.026525022 -0.0015389714 -0.087959
-0.0048141624 0.026930641 0.044486135 -0.009619089 0.020880848 0.39251018 -0.024535883 -0.0021173437
0.00063480757 0.03207121 -0.068698384 0.09860077 -0.0008871051 0.022294797 0.0070359283 -0.0002426043
-0.018944433 -0.003638662 -0.07548435 0.0004634288 0.0456692 -0.005115773 0.0034559192 0.1960045
-0.046604637 0.011610309 0.05526331 0.06348236 0.02845012 0.0019959987 0.002570646 -0.013783038
0.16305923 -0.06428288 -0.059292324 0.0019388784 -0.045052573 -0.053052556 0.0015492518 -0.0883337
-0.042211976 0.35339183 0.04070387 0.033830397 0.04087554 0.0133525655 0.054001085 0.000824752
0.028290054 0.014860637 -0.03639734 -0.0054173665 -0.046287477 -0.0051838877 0.0015551199 0.009622326
0.016945302 0.0009339134 0.060732223 0.042318832 -0.08663533 -0.068096146 0.052353907 -0.018627273
0.42486817 0.00036122318 -0.053902235 -0.04565992 0.043434456 -0.05938294 0.028759465 -0.06375233
0.066090666 0.0027853777 -0.03165818 0.009219111 0.04813095 0.03602684 0.06359767 0.0015209764
0.0070838872 -0.030873418 -0.052262887 0.09418073 -0.020051317 0.080694266 -0.0006511672 0.33310995
0.0035842918 -0.0032040926 -0.057634406 0.03918515 -0.04595538 -0.006784682 0.033010166 0.0022813717
